model_weights.npy (npy, 6400 bytes, 1 tensors)

array f8 [784, 1]
0	0x0000000000000000	0.0
1	0x0000000000000000	0.0
2	0x0000000000000000	0.0
3	0x0000000000000000	0.0
4	0x0000000000000000	0.0
5	0x0000000000000000	0.0
6	0x0000000000000000	0.0
7	0x0000000000000000	0.0
8	0x0000000000000000	0.0
9	0x0000000000000000	0.0
10	0x0000000000000000	0.0
11	0x0000000000000000	0.0
12	0xbeb402c31ebfa408	-1.192736017502926e-06
13	0xbed270485826c876	-4.396105739367276e-06
14	0xbec0a84f30cea8a1	-1.985723776039525e-06
15	0xbe7635beebbe3628	-8.273849066831348e-08
16	0x0000000000000000	0.0
17	0x0000000000000000	0.0
18	0x0000000000000000	0.0
19	0x0000000000000000	0.0
20	0x0000000000000000	0.0
21	0x0000000000000000	0.0
22	0x0000000000000000	0.0
23	0x0000000000000000	0.0
24	0x0000000000000000	0.0
25	0x0000000000000000	0.0
26	0x0000000000000000	0.0
27	0x0000000000000000	0.0
28	0x0000000000000000	0.0
29	0x0000000000000000	0.0
30	0x0000000000000000	0.0
31	0x0000000000000000	0.0
32	0xbe7f01fa85babffa	-1.1551279171617508e-07
33	0xbe9b84d4435ca601	-4.100630265230514e-07
34	0xbed54c0e0fbdecd0	-5.077621832212667e-06
35	0xbeea9f67c384460a	-1.269468167256189e-05
36	0xbef6f96eccd1e7b5	-2.191004459859538e-05
37	0xbf004423e1104d11	-3.102526182643441e-05
38	0xbf0e86f1553e88c6	-5.822586049865487e-05
39	0xbf144cc962676fac	-7.743815567756604e-05
40	0xbf15fc581c10c9ba	-8.386886385450864e-05
41	0xbf16087ff2b8de2d	-8.40499966948619e-05
42	0xbf164f3c02039bf2	-8.51040244956717e-05
43	0xbf1601b326a76d07	-8.394866896515109e-05
44	0xbf17ad57feb8b25b	-9.03210599793673e-05
45	0xbf129be76c52e3cc	-7.09877013659453e-05
46	0xbf0721156d553af0	-4.411551132454071e-05
47	0xbf00ed9cc6e7c149	-3.228792853693597e-05
48	0xbef924fd832372d9	-2.3979657449812702e-05
49	0xbee33ad57e470a9e	-9.169492792509168e-06
50	0xbed36ab3be266d02	-4.6293270962408546e-06
51	0xbebeb9cfa43cc475	-1.8314018612293122e-06
52	0x0000000000000000	0.0
53	0x0000000000000000	0.0
54	0x0000000000000000	0.0
55	0x0000000000000000	0.0
56	0x0000000000000000	0.0
57	0x0000000000000000	0.0
58	0xbe97727e9195302b	-3.493911591892085e-07
59	0xbe94e282a14c7572	-3.112078570831996e-07
60	0xbec88eb45c6b1c4f	-2.92747492678132e-06
61	0xbec2bf3bc3838b1a	-2.2348172273740465e-06
62	0xbef6b3ef14a5f2b0	-2.1651141005817997e-05
63	0xbf1151341078609f	-6.60598781155896e-05
64	0xbf1fe204860a9851	-0.00012162354097231097
65	0xbf2de1f7f9c8bbd5	-0.00022798683211663778
66	0xbf39fd441fe65137	-0.0003965655631870293
67	0xbf4320be06381e44	-0.0005837371685978939
68	0xbf4b24696da1e46e	-0.0008283152376541544
69	0xbf51b2143bd0ff00	-0.0010800550073923332
70	0xbf56262d531d6867	-0.0013518755553918683
71	0xbf5902cdf4949468	-0.001526547554314273
72	0xbf593d728fd53c40	-0.0015405291336099275
73	0xbf568d229559e7ca	-0.0013764226654573324
74	0xbf5288844bb601e1	-0.0011311809492725521
75	0xbf4a44f2dd9619ae	-0.0008016763560341666
76	0xbf3e2da4377d1b23	-0.0004604841155821262
77	0xbf2f90f46bb5e3f9	-0.0002408312192121729
78	0xbf1d851e472917d1	-0.00011260983755176304
79	0xbf044a64dc74ba5c	-3.8701251066409966e-05
80	0xbeec58997eb7d22b	-1.351647002587841e-05
81	0xbec8d080f74996a6	-2.9581150847054613e-06
82	0x0000000000000000	0.0
83	0x0000000000000000	0.0
84	0x0000000000000000	0.0
85	0x0000000000000000	0.0
86	0xbeb29a8d85af1e52	-1.108868238773853e-06
87	0xbec2e23a6c23657e	-2.251112932599621e-06
88	0xbed52477f260b4e9	-5.040754137692154e-06
89	0xbefcdc8e7f7533e3	-2.7524518342137468e-05
90	0xbf16ac22eaf28a50	-8.648837205042195e-05
91	0xbf2cd76f9dbfff04	-0.00022004354002546505
92	0xbf3e4f85fb346197	-0.0004625036337571274
93	0xbf4d3da8f4c61523	-0.0008923602086247411
94	0xbf57eb3ab0e356b9	-0.001459891620063143
95	0xbf61d9297b439e62	-0.0021787462411458217
96	0xbf685c4f7da5389a	-0.0029737045817120446
97	0xbf6fa1482db9d7f0	-0.0038610849131215305
98	0xbf732a1ad2e3c179	-0.004678826122685436
99	0xbf750cdb751c845c	-0.005139214759567325
100	0xbf74996a183356b2	-0.005029119903346023
101	0xbf727b90df4e7506	-0.004512372882257814
102	0xbf6d52f0d360e849	-0.003579588282289801
103	0xbf640f55c520d84a	-0.002448718566507889
104	0xbf55f1885f7b6711	-0.0013393241660452674
105	0xbf44d0b81a578205	-0.0006352328243189326
106	0xbf30c54c57e3c643	-0.00025590051508492614
107	0xbf1372feb0493904	-7.419280525164737e-05
108	0xbf039f83c76e7e77	-3.742810161288812e-05
109	0xbedf6866a5cc6a13	-7.488206929885075e-06
110	0xbeb37d785980cb64	-1.1617015385322684e-06
111	0x0000000000000000	0.0
112	0x0000000000000000	0.0
113	0xbe8e47b9aac6cb84	-2.2560489777514143e-07
114	0xbec106693f17018d	-2.02954333225497e-06
115	0xbed775629c861ef8	-5.592950806827589e-06
116	0xbef123cc2e2b8eab	-1.6345819754527934e-05
117	0xbf1b929808b52f34	-0.00010518124525054907
118	0xbf358aa5b9987510	-0.00032869859714586367
119	0xbf49d26b1e591be7	-0.0007880232848912456
120	0xbf59c5b64b4a9651	-0.0015730171409499458
121	0xbf67a9d4fec261b0	-0.002888599401625856
122	0xbf7335b6744b6609	-0.004689896308911931
123	0xbf7c50fc100edac9	-0.006913170452142744
124	0xbf83fac7a485a483	-0.009755668361963515
125	0xbf8a9f5ca796caee	-0.012999271263514935
126	0xbf8fb5688a875661	-0.015482727744635829
127	0xbf90efe1b773e92b	-0.016540076086110005
128	0xbf90166de1bf8e59	-0.015710560706692387
129	0xbf8b64d65862a212	-0.013375925609879356
130	0xbf84a727aa959040	-0.010084447758977544
131	0xbf7b1c74acac7811	-0.006618934402267144
132	0xbf6bf3a34fe4798e	-0.0034120740593969806
133	0xbf5746a0e0269632	-0.0014206477213546506
134	0xbf34747a52b704be	-0.00031211840061124904
135	0x3f0982773a6c2cea	4.8655761295613085e-05
136	0xbedcecfc3375485b	-6.896429844376475e-06
137	0xbefec9ce907ee6ca	-2.9362018750345502e-05
138	0xbedff92c6458b64e	-7.6230367703051875e-06
139	0xbeb2efdea8a802f3	-1.128732636801626e-06
140	0x0000000000000000	0.0
141	0x0000000000000000	0.0
142	0xbed0fa64cddca774	-4.047894632633559e-06
143	0xbef44963b983f565	-1.9346883704853506e-05
144	0xbf121b1dfe777b09	-6.906862801468404e-05
145	0xbf32c1db9cd08b29	-0.00028621303209967974
146	0xbf49d7662191e7b5	-0.0007886170088930918
147	0xbf5d7bb81ad16562	-0.001799516477396367
148	0xbf6c311b3e1e6b2c	-0.003441384514144904
149	0xbf77264a5485e638	-0.005651750900477696
150	0xbf823e59b1602019	-0.008907986379213683
151	0xbf8b2356de462a8e	-0.013250998171107111
152	0xbf931cfe2ea47d8f	-0.01866528663333394
153	0xbf993c7c65f08744	-0.02464479801358911
154	0xbf9dd2ef77330d05	-0.02912496724162585
155	0xbf9faad003b6269c	-0.030925035692723854
156	0xbf9dafe5d79ef304	-0.028991309438185744
157	0xbf98b442f5172c25	-0.02412514325059702
158	0xbf91eeb3831e8721	-0.017512135389217257
159	0xbf86e460a6fd1d6e	-0.01117778310403025
160	0xbf77e8bb0395eea4	-0.005837183497870466
161	0xbf61db55996a01c7	-0.0021797820912185825
162	0xbf1c11eacf62bb26	-0.00010707851092449076
163	0x3f401af7e2be57d8	0.0004914961223103599
164	0x3f1a238da925c084	9.971191528790514e-05
165	0xbf1b4c69cd5d79fe	-0.00010413547292163064
166	0xbf09fe020532b410	-4.9576222090543074e-05
167	0xbec534063637bbe7	-2.5276207666828363e-06
168	0x0000000000000000	0.0
169	0xbe736ee066522e3b	-7.239398199155154e-08
170	0xbeeb2089036d84f9	-1.2935204819877136e-05
171	0xbf109f8caededda8	-6.341262971331382e-05
172	0xbf2b13bc23703a85	-0.00020658179866513498
173	0xbf45c42f2682d49f	-0.0006642561175086609
174	0xbf5a9b5d36440f43	-0.0016239557526782223
175	0xbf6a4fc3ee430f41	-0.003211863209886007
176	0xbf76f230db53fa10	-0.0056020649401476025
177	0xbf818bc3d535e36a	-0.00856736177841962
178	0xbf8a160f34bc6bfc	-0.012737387463451093
179	0xbf92fa3124362e33	-0.018532531581099753
180	0xbf9a208b4d862320	-0.025514771086395105
181	0xbfa0ffff456396c7	-0.03320310327562264
182	0xbfa426c7e43b5156	-0.0393583742240106
183	0xbfa54c38e6a40cfd	-0.04159715476455437
184	0xbfa3d480f2e0982d	-0.03873064961253223
185	0xbfa05cf0ac956eba	-0.031959076945637446
186	0xbf97fac8a1c3b9b5	-0.023417601464581234
187	0xbf8e9a9ce2f19abe	-0.014943338084959176
188	0xbf815119076876ba	-0.008455462969375705
189	0xbf6e3217d18d107e	-0.003685995598433022
190	0xbf4b720d552d2c35	-0.0008375706769155946
191	0x3f2128b5585317f1	0.0001309129112653791
192	0xbf26c7315f93db72	-0.00017378308965706638
193	0xbf3754d70f931a3a	-0.0003560090113520518
194	0xbf1d0b7b90e3bfe8	-0.00011079732596264125
195	0xbeed57ac4f9fbb02	-1.399158144363205e-05
196	0xbe98d7bd3cdbbc74	-3.701855434264661e-07
197	0xbee306fb07ac0245	-9.072908360164707e-06
198	0xbf0cf16d6235c8d1	-5.520453512532361e-05
199	0xbf2a2211d790d1eb	-0.00019937961386208512
200	0xbf43746a1274ba9a	-0.0005937116556305633
201	0xbf56bf0505c88668	-0.0013883160637607975
202	0xbf686671de0d50cd	-0.002978536984679625
203	0xbf74deeceab9d620	-0.005095410782464366
204	0xbf802a7f9863c13b	-0.007893559301436972
205	0xbf875de14d9169fd	-0.011409530811012475
206	0xbf90b80caf475005	-0.01632709331336459
207	0xbf978d1a0d44499d	-0.02299919801687055
208	0xbf9f2c330193c95f	-0.03044204423071883
209	0xbfa375b778dd1fca	-0.03800748205554745
210	0xbfa67e7e54fb78d3	-0.043933818696801595
211	0xbfa7751f303f7161	-0.0458154436489362
212	0xbfa5c6dda1256798	-0.042532850190311666
213	0xbfa2159d2337f7d8	-0.035321150349758745
214	0xbf9b0d34738aaef3	-0.026417560150249163
215	0xbf928da47b388002	-0.018118448277277828
216	0xbf87260d1ee92eb8	-0.01130304575521933
217	0xbf78c5dfa5ead57b	-0.006048081994483363
218	0xbf65e0dadeb52fa1	-0.00267069576299224
219	0xbf54a85b420d0d72	-0.0012608424369354413
220	0xbf508dfe442c93d5	-0.0010104163236033155
221	0xbf4593ff1edd1146	-0.0006585117059576893
222	0xbf25bbfcbc36c4d0	-0.0001658197416936403
223	0xbeeda88a7e15c94f	-1.4142209638666343e-05
224	0xbec0357375696928	-1.9322386990819553e-06
225	0xbefb3cea91721081	-2.5976137376663037e-05
226	0xbf2573638a2cfa57	-0.00016365614018272703
227	0xbf408308b9c91594	-0.0005039017301632803
228	0xbf520ea4a79d7f47	-0.001102124019290289
229	0xbf624f6d3d3c3a0c	-0.0022351392343644746
230	0xbf712117ceb80d4c	-0.0041819505672749495
231	0xbf7b59ba6567f83c	-0.0066773682688090995
232	0xbf841dec788d7806	-0.009822699955915237
233	0xbf8bc04437e39d99	-0.013550312953568166
234	0xbf9368f48db269cc	-0.01895506014680297
235	0xbf999f85c56d9202	-0.02502259271149577
236	0xbf9fde8457a409df	-0.031122272347610887
237	0xbfa2c156e130a7f4	-0.03663131235983022
238	0xbfa4fa103edb23e8	-0.04097033278737411
239	0xbfa594b3247b0915	-0.04215011425323404
240	0xbfa3e9f5d0dbe6f6	-0.038894349809153114
241	0xbfa088766c9bdd14	-0.03229112697402506
242	0xbf997311450a8c86	-0.02485301002401432
243	0xbf92963d1c90cfbd	-0.018151240223417398
244	0xbf896ec626577b7d	-0.012418315930458718
245	0xbf80535cf7b2e767	-0.007971502598923498
246	0xbf73255430720698	-0.004674271454065647
247	0xbf66ac05fecfa104	-0.002767574033431088
248	0xbf5bb18dabccf04e	-0.0016902812487407273
249	0xbf4bda15430e870c	-0.0008499721353596181
250	0xbf274b3246a147d2	-0.00017771710128272486
251	0xbeea92027e37b10c	-1.2669730444302595e-05
252	0xbec893e848f89b40	-2.929897682485595e-06
253	0xbf05d627bb6ff876	-4.164990189535558e-05
254	0xbf306366c06d6b36	-0.00025006540857013275
255	0xbf4722a387bafb43	-0.0007060335624017106
