model_weights.npy (npy, 6400 bytes, 1 tensors)

array f8 [784, 1]
000000 00 00 00 00 00 00 00 00 00 00 00 00 00 00 00 00
       0.0 0.0
000010 00 00 00 00 00 00 00 00 00 00 00 00 00 00 00 00
       0.0 0.0
000020 00 00 00 00 00 00 00 00 00 00 00 00 00 00 00 00
       0.0 0.0
000030 00 00 00 00 00 00 00 00 00 00 00 00 00 00 00 00
       0.0 0.0
000040 00 00 00 00 00 00 00 00 00 00 00 00 00 00 00 00
       0.0 0.0
000050 00 00 00 00 00 00 00 00 00 00 00 00 00 00 00 00
       0.0 0.0
000060 a7 9a 8b fb ee b6 da be 5b 5b 8c a7 b0 dc f3 be
       -6.369253178850848e-06 -1.8941946538476996e-05
000070 6f b3 e7 7b f1 50 d7 be cd 99 df 4f 97 16 8f be
       -5.559011638994799e-06 -2.3162548495811589e-07
000080 00 00 00 00 00 00 00 00 00 00 00 00 00 00 00 00
       0.0 0.0
000090 00 00 00 00 00 00 00 00 00 00 00 00 00 00 00 00
       0.0 0.0
0000a0 00 00 00 00 00 00 00 00 00 00 00 00 00 00 00 00
       0.0 0.0
0000b0 00 00 00 00 00 00 00 00 00 00 00 00 00 00 00 00
       0.0 0.0
0000c0 00 00 00 00 00 00 00 00 00 00 00 00 00 00 00 00
       0.0 0.0
0000d0 00 00 00 00 00 00 00 00 00 00 00 00 00 00 00 00
       0.0 0.0
0000e0 00 00 00 00 00 00 00 00 00 00 00 00 00 00 00 00
       0.0 0.0
0000f0 00 00 00 00 00 00 00 00 00 00 00 00 00 00 00 00
       0.0 0.0
000100 2b 21 a7 74 1b 7c 99 be c2 fb 43 c5 48 ce b5 be
       -3.7975302249724217e-07 -1.2997268373224822e-06
000110 3c 4e 31 7b 9e 0e f4 be ed bf dd 76 ee ff 07 bf
       -1.9127946597598112e-05 -4.5775856832075283e-05
000120 c7 d9 5f f4 9d 3b 15 bf 22 d1 8d 87 98 5b 1a bf
       -8.099700525563475e-05 -0.0001005470129607539
000130 8c 8c 57 ec 51 4a 2b bf f1 cc 3f ad f7 34 31 bf
       -0.00020820856131740053 -0.0002625565223290513
000140 20 6b 93 05 64 fc 33 bf 6a 96 38 eb 35 8d 38 bf
       -0.0003049606508064729 -0.00037462774636973803
000150 34 9c 3b 61 e8 f4 3b bf b4 c7 62 05 f1 87 3a bf
       -0.00042658494315478694 -0.0004048312597532092
000160 92 b1 bb 53 bf 82 3c bf fd e8 0f b3 23 6c 35 bf
       -0.00043503924437862066 -0.00032688018387684576
000170 47 5a a1 71 b3 a3 2b bf 17 7f e4 36 bc d6 28 bf
       -0.00021087232090862188 -0.00018950507678371843
000180 22 46 fa f5 af 13 22 bf eb d4 89 8e e7 b2 05 bf
       -0.00013791583022686275 -4.138726382489098e-05
000190 ba 0a f8 8e 43 da f2 be fd d1 12 94 d9 9a de be
       -1.7979234085539342e-05 -7.29677259519003e-06
0001a0 00 00 00 00 00 00 00 00 00 00 00 00 00 00 00 00
       0.0 0.0
0001b0 00 00 00 00 00 00 00 00 00 00 00 00 00 00 00 00
       0.0 0.0
0001c0 00 00 00 00 00 00 00 00 00 00 00 00 00 00 00 00
       0.0 0.0
0001d0 1e d3 aa 02 f5 78 ba be 06 0e af 33 9f 66 c4 be
       -1.577883277076651e-06 -2.4319728288717196e-06
0001e0 27 a2 1b 2d 1b d1 ea be 6c d0 93 94 b7 a4 e2 be
       -1.2787256682370952e-05 -8.889878375197185e-06
0001f0 6c 4d 54 5d 6e 73 14 bf 41 81 93 01 82 c3 2f bf
       -7.801400291312038e-05 -0.00024233781804295677
000200 d8 75 cc b4 9a e9 3d bf 01 cb 60 fd d8 03 4c bf
       -0.00045642878539972403 -0.0008549508590987854
000210 09 1b 1c 3f e6 e1 58 bf 70 21 e3 0c 7f 35 63 bf
       -0.0015187023640820827 -0.0023448449565856497
000220 d8 98 c6 c4 78 46 6e bf 58 a3 e7 d4 44 b6 75 bf
       -0.0036957129252242864 -0.005300778268499361
000230 5c 6a 32 15 6b c7 7d bf 2c e1 6a d7 0c 91 81 bf
       -0.0072702582284827864 -0.008577442478199325
000240 de 92 f2 82 7f d3 81 bf a0 ca 24 1f 3a c0 7f bf
       -0.008704181846334643 -0.007751681363788038
000250 72 52 44 54 4d a5 7a bf 3b a2 02 7d fc b7 73 bf
       -0.006505300585804551 -0.004814134867196669
000260 4f 1a cc be 76 49 68 bf bf c3 62 21 e5 d9 59 bf
       -0.0029647177929093336 -0.0015778291322414565
000270 dc 68 3b 69 42 98 48 bf 02 1c dd 34 02 d3 31 bf
       -0.0007505726120726991 -0.00027197650785065763
000280 52 9e a0 d8 3d 3c 1b bf 07 c9 68 1a 6d fe f4 be
       -0.00010389449576619331 -2.002129772389011e-05
000290 00 00 00 00 00 00 00 00 00 00 00 00 00 00 00 00
       0.0 0.0
0002a0 00 00 00 00 00 00 00 00 00 00 00 00 00 00 00 00
       0.0 0.0
0002b0 87 68 6f 2c 75 3d d4 be ca 9c f9 0a 45 e6 f0 be
       -4.825608534065235e-06 -1.6116610537156286e-05
0002c0 a1 e6 40 ab d0 21 be be 79 11 5d 3a c6 93 2b bf
       -1.7960125378149851e-06 -0.00021039767050913172
0002d0 05 8b 98 50 9f bd 3e bf 02 08 cb 29 4a 30 52 bf
       -0.0004690660431114077 -0.0011101459742097757
0002e0 51 3c 35 ac f8 54 61 bf 43 5b ca 39 5b c0 70 bf
       -0.0021157128227638285 -0.004089695311128963
0002f0 93 1f 1d 57 85 cb 7a bf 9a 92 2d f2 ed dd 84 bf
       -0.006541748867512259 -0.010188921883761016
000300 35 e1 ba 28 01 65 8b bf 7b 0c 26 d8 1b 55 92 bf
       -0.013376244597893642 -0.0179027891804364
000310 8c eb 2f bc da 7a 96 bf bc 76 57 9f 27 29 99 bf
       -0.02195302747348253 -0.024571055508082237
000320 90 d3 5d 3a 9f 8f 99 bf ce 2e 61 49 0a 53 97 bf
       -0.024961936890992187 -0.022777710655914878
000330 86 fd c1 72 9e 30 92 bf b6 07 19 f6 70 58 88 bf
       -0.017763591532000265 -0.011887438307102243
000340 22 f6 df 09 16 9d 76 bf f6 39 5d 17 6c 29 55 bf
       -0.005520902717760319 -0.001291614110829562
000350 03 fb 3d a7 8f 36 3f 3f 3b ea 88 85 b8 1d 41 3f
       0.0004762745586432278 0.0005223418220972673
000360 bf f9 f2 3c 37 55 33 3f fc da 67 55 8e 86 15 3f
       0.0002949962481117139 8.211368308495484e-05
000370 01 04 b6 68 c4 0f f0 3e 00 00 00 00 00 00 00 00
       1.531752654449284e-05 0.0
000380 00 00 00 00 00 00 00 00 95 be 06 10 4a 4b c0 be
       0.0 -1.942407948450477e-06
000390 54 93 a9 d6 2c 4f ee be 70 73 ed 8f ef 4e 0f bf
       -1.44525899560905e-05 -5.971592508189391e-05
0003a0 d9 fe 10 82 39 5f 36 bf d1 f9 ce 0c 04 7a 54 bf
       -0.00034136919027004175 -0.0012497939635377384
0003b0 5c 03 6e 77 26 44 64 bf 24 3a da c1 5e 1b 76 bf
       -0.0024739028262392004 -0.005397195954755438
0003c0 cf d0 f0 70 ae 10 85 bf 71 ae d2 25 8f ae 8f bf
       -0.010285723516155447 -0.015469663945928165
0003d0 fb fb a4 e6 36 14 95 bf 82 c8 df 28 97 af 9d bf
       -0.020584924533292064 -0.0289901369760135
0003e0 6b 30 03 8a 67 a4 a5 bf e7 47 bf f2 e1 3f ad bf
       -0.042269931409095594 -0.05712801063749833
0003f0 f3 b6 76 51 21 54 b0 bf ae d1 21 a1 3a 0f b0 bf
       -0.06378372420178006 -0.06273237642182636
000400 16 9d 83 f4 25 8e ab bf d6 e0 31 4b e1 4a a5 bf
       -0.053818880174555314 -0.04158691447168088
000410 63 ed ef 30 45 c0 99 bf 58 d9 e5 02 d9 ad 85 bf
       -0.02514751540364325 -0.010585494423804562
000420 75 c8 dc e7 e8 55 73 3f f5 85 51 2b b0 ec 92 3f
       0.004720601833286255 0.018481018680523282
000430 7c 8a 32 ed 35 73 96 3f 53 ec 78 ba 2c 08 93 3f
       0.021923868753797468 0.0185858715833372
000440 d3 56 ca 03 ee 77 84 3f f9 eb 9d 06 b8 f4 66 3f
       0.009994372835801546 0.0028022379164531733
000450 77 85 28 bf 67 7e 39 3f 2d 97 0a ab 54 4f eb be
       0.00038900406721794435 -1.302236828000131e-05
000460 00 00 00 00 00 00 00 00 00 00 00 00 00 00 00 00
       0.0 0.0
000470 c3 71 3b d1 2e ea 04 bf 78 5f 06 a5 d6 e7 33 bf
       -3.989177107907888e-05 -0.00030373564097762413
000480 69 aa 18 b4 e6 65 59 bf e5 f3 c2 cf eb da 71 bf
       -0.0015501740421181248 -0.004359170092524932
000490 ea 53 f9 81 0b e2 80 bf 93 63 b0 5b a0 8e 8a bf
       -0.008243646530141608 -0.012967350767256558
0004a0 28 4a fd d8 51 2b 93 bf 71 b4 eb 94 e4 3f 98 bf
       -0.018719939106924738 -0.023681232060813465
0004b0 4b 73 52 8f a6 23 9b bf 9c f8 6c 6a 93 e1 a0 bf
       -0.026503183839497606 -0.03297100710050069
0004c0 82 da b6 91 5c 50 a8 bf d7 3b 3c ff f2 b2 b0 bf
       -0.0474881103395335 -0.06523054820375705
0004d0 80 49 f0 ec df 9f b3 bf 29 9f 60 fd 04 06 b4 bf
       -0.07665824446329417 -0.07821685014698389
0004e0 c2 4e ab cd 88 dc b0 bf db 40 0c 4a db a2 a3 bf
       -0.0658650877115248 -0.038351872242971395
0004f0 a1 14 b5 0a a6 3d 7d bf cb b3 b4 a3 11 af 98 3f
       -0.0071388708123027176 0.02410533487016035
000500 27 70 55 3f a0 ca aa 3f be c0 24 9c c5 e7 b1 3f
       0.052327163439912554 0.06994280874346523
000510 85 86 1b 90 dd f2 b2 3f d0 b9 95 d8 57 99 af 3f
       0.07401833313226731 0.06171679037912592
000520 4c c7 8e ae 87 11 a3 3f ec aa 11 5c 7f 5f 89 3f
       0.03724311834174773 0.01238917827341398
000530 0a 6a 98 1e 12 6d 64 3f 33 72 0e 79 ab a3 07 3f
       0.0024934152504674277 4.50884537095169e-05
000540 00 00 00 00 00 00 00 00 b9 aa 90 f2 3f 5d aa be
       0.0 -7.857160869752722e-07
000550 f6 7e 50 8e c7 a0 0c bf 15 e6 c9 15 02 c3 52 bf
       -5.460366245579704e-05 -0.0011451263773366628
000560 34 a0 74 54 eb 88 70 bf 9e 0e d5 4a d8 fb 80 bf
       -0.0040368263792416766 -0.008292856010150115
000570 30 ac dc 1c ec 49 8c bf 27 80 98 86 4a 3f 94 bf
       -0.01381287062721101 -0.019772686448163903
000580 2d 00 32 0e ac 4a 98 bf 85 64 a7 f5 00 17 97 bf
       -0.023722351423657684 -0.022548689836046982
000590 1a 15 39 c8 2e 93 8f bf d9 81 13 82 a0 e3 87 bf
       -0.015417447552986508 -0.011664632768259619
0005a0 25 2e 1a ee 36 f6 93 bf 75 02 b1 cf 81 22 a2 bf
       -0.019493921549424215 -0.03541951809211678
0005b0 f4 46 24 0c 0c a2 a8 bf 4a a0 18 8f e8 b9 ac bf
       -0.04811132095541196 -0.056105868785664884
0005c0 e8 bc ad 2e 99 53 a7 bf 2b 3d 6c 2a fb c9 92 bf
       -0.04555967993553073 -0.018348621811182724
0005d0 89 b8 63 49 09 2f 8e 3f 26 f9 57 f3 d3 69 a9 3f
       0.01473815207688413 0.049635528044733854
0005e0 73 cb e2 dc b8 4a b4 3f ce c3 f5 d4 c0 fa b9 3f
       0.07926516907427388 0.10148244094104017
0005f0 dd 74 10 61 fa f0 bc 3f 0b 2b 6c 50 f8 e5 ba 3f
       0.11305203313573338 0.10507156337204664
000600 5e bc 09 35 b3 bd b2 3f 2a 06 39 32 fc e0 9f 3f
       0.07320709271310608 0.03113168770346967
000610 0a 44 11 41 dc 52 7c 3f 97 47 75 28 e7 f4 41 3f
       0.00691495930466691 0.0005479935361256569
000620 83 ce 62 7b 15 ae ba be a5 72 01 24 a6 75 12 bf
       -1.5902528338996675e-06 -7.041765729938006e-05
000630 0e a9 48 9f 26 d4 3b bf 46 64 0f b7 34 c7 64 bf
       -0.00042463248181214073 -0.0025363950339678835
000640 4d 32 87 8a 2d 5a 80 bf ce f9 fa f9 cf d2 8b bf
       -0.00798450068477865 -0.013585686508460617
000650 c1 64 2f aa 07 8b 93 bf 8e 3a 86 43 f6 b6 96 bf
       -0.019085044634128637 -0.022182319518430797
000660 9e dd 26 3c 11 4d 94 bf 63 4e 58 16 60 4f 88 bf
       -0.01982523851049011 -0.011870146448053015
000670 f2 74 64 a2 7c 94 60 3f f9 fa 80 62 6f b8 81 3f
       0.002023929048972855 0.008652563279722513
000680 cd da af 8b d4 a6 57 bf ce 0f 21 1b cd f2 95 bf
       -0.0014435840264447775 -0.021434025555450202
000690 ea 7e 2f a2 ec 03 a4 bf d8 61 f7 28 69 1d a9 bf
       -0.03909244041255795 -0.04905251145436623
0006a0 f7 e5 8a 08 d8 5e a5 bf 90 0f ce 77 e0 02 99 bf
       -0.04173922638205945 -0.02442503672820312
0006b0 c2 c7 c7 e1 14 dd 32 3f 72 f5 2d 9e 20 83 9d 3f
       0.0002878356915793045 0.028820523886215317
0006c0 25 03 8e 6b 40 e1 ae 3f ea 26 11 75 eb 24 b7 3f
       0.06031228363918321 0.09040710075455718
0006d0 be 77 3d 71 c1 b0 bc 3f 0f a1 11 bc 92 70 bf 3f
       0.11207207693720897 0.12281148044133182
0006e0 7f 07 d4 a2 3b 1c b9 3f f3 34 b7 07 cb c1 a8 3f
       0.09808705067919553 0.04835352391419603
0006f0 5e f3 be 91 d6 91 84 3f f2 db 81 d8 1d 25 41 3f
       0.010043789217769546 0.0005232234698401268
000700 dc 37 1e 50 6d 17 e1 be de d1 a9 71 57 db 27 bf
       -8.149867884357032e-06 -0.00018201296264276542
000710 5a a1 99 f6 3d 75 54 bf a1 61 a2 f1 80 b1 73 bf
       -0.0012486558065579385 -0.004807952582403991
000720 63 fc d7 70 a4 6f 88 bf a2 2f 46 24 9a c5 91 bf
       -0.011931690877643846 -0.017355354751586234
000730 65 b6 e7 09 4c 2c 96 bf 21 36 b1 a9 6c b5 95 bf
       -0.0216533547444925 -0.02119989190787497
000740 59 31 02 2e fd 1b 8b bf b1 6d d2 f9 29 9a 70 bf
       -0.013236978499002449 -0.004053272217017166
000750 36 77 b8 92 75 1b 6e 3f af 97 0e 4a 8b cf 84 3f
       0.0036752029752865857 0.01016148395303759
000760 a9 18 47 d1 df 83 44 bf c8 91 85 90 7b 80 96 bf
       -0.0006260722025721771 -0.021974497505100193
000770 f6 e5 fb 3a fd cc a3 bf 63 10 bd 51 38 75 a9 bf
       -0.03867331833857783 -0.04972244260582739
000780 6e fb 72 b8 d7 4a ab bf 87 6a f3 e8 f1 83 a9 bf
       -0.0533053791673329 -0.049834785162336685
000790 f2 12 72 c9 a9 90 a4 bf 28 08 dc e1 03 98 93 bf
       -0.04016619285633806 -0.01913457933461174
0007a0 55 e3 80 53 bc b3 88 3f 78 42 50 35 68 e6 a7 3f
       0.012061568544696458 0.04667974139022574
0007b0 0e 2f 34 99 22 94 b3 3f 19 f8 ed 72 b3 26 ba 3f
       0.07647911300972174 0.10215302997491484
0007c0 eb ba 39 a9 63 5c b8 3f 82 a5 97 dc 8a 5f aa 3f
       0.0951597488544668 0.051510180881289905
0007d0 a8 8a 07 cc bd f5 83 3f 24 d4 25 ea 22 59 3b 3f
       0.009746058262810678 0.00041730024727054866
0007e0 b6 d7 74 64 40 69 f9 be cf 38 3d c4 25 85 34 bf
       -2.4233950424355526e-05 -0.0003131119922174076
0007f0 c1 5e 60 67 b9 ef 5c bf 41 95 8b ec 49 e5 77 bf
       -0.0017661390861628964 -0.005833901181835189
