model_weights.npy (npy, 6400 bytes, 1 tensors)

array f8 [784, 1]
000000 00 00 00 00 00 00 00 00 00 00 00 00 00 00 00 00
       0.0 0.0
000010 00 00 00 00 00 00 00 00 00 00 00 00 00 00 00 00
       0.0 0.0
000020 00 00 00 00 00 00 00 00 00 00 00 00 00 00 00 00
       0.0 0.0
000030 00 00 00 00 00 00 00 00 00 00 00 00 00 00 00 00
       0.0 0.0
000040 00 00 00 00 00 00 00 00 00 00 00 00 00 00 00 00
       0.0 0.0
000050 00 00 00 00 00 00 00 00 00 00 00 00 00 00 00 00
       0.0 0.0
000060 ec 52 c4 d5 a8 29 b3 be 56 45 e1 a7 e5 93 d1 be
       -1.1421878616846836e-06 -4.190855746059643e-06
000070 b7 55 8c 58 a3 8c bf be d0 e3 b2 e5 6c 08 75 be
       -1.8804888403713807e-06 -7.835370168214087e-08
000080 00 00 00 00 00 00 00 00 00 00 00 00 00 00 00 00
       0.0 0.0
000090 00 00 00 00 00 00 00 00 00 00 00 00 00 00 00 00
       0.0 0.0
0000a0 00 00 00 00 00 00 00 00 00 00 00 00 00 00 00 00
       0.0 0.0
0000b0 00 00 00 00 00 00 00 00 00 00 00 00 00 00 00 00
       0.0 0.0
0000c0 00 00 00 00 00 00 00 00 00 00 00 00 00 00 00 00
       0.0 0.0
0000d0 00 00 00 00 00 00 00 00 00 00 00 00 00 00 00 00
       0.0 0.0
0000e0 00 00 00 00 00 00 00 00 00 00 00 00 00 00 00 00
       0.0 0.0
0000f0 00 00 00 00 00 00 00 00 00 00 00 00 00 00 00 00
       0.0 0.0
000100 a8 a1 a9 b8 5a b5 7d be 64 25 e1 6e 7f 24 9a be
       -1.1067247222276653e-07 -3.8955464177046365e-07
000110 9f 5c ce ed 6a 94 d3 be 93 6c ea 79 64 9a e8 be
       -4.668177749154279e-06 -1.1731670210671132e-05
000120 2c d7 ff 49 b0 88 f5 be c4 d6 e8 c5 49 86 fe be
       -2.0536365468579846e-05 -2.911049193184721e-05
000130 76 36 00 87 16 ac 0c bf db 41 d9 22 ff 22 13 bf
       -5.4687917213508514e-05 -7.300073840466692e-05
000140 d3 07 4d ad 31 d0 14 bf e5 92 a8 ab 3b 38 15 bf
       -7.939627842026781e-05 -8.094658088759648e-05
000150 3c 54 95 2d f0 e3 16 bf 9c ad 49 e4 76 3d 15 bf
       -8.731988363781888e-05 -8.102453382157485e-05
000160 c2 4a 55 f1 f9 f8 16 bf f7 f1 84 3b 5b 1b 12 bf
       -8.763337640020199e-05 -6.90721925637529e-05
000170 eb bc 50 6e 31 93 06 bf 6f ee 5a 25 55 8b 00 bf
       -4.305834389872219e-05 -3.1555686900355875e-05
000180 81 c1 13 e0 d8 77 f8 be ba 2a e6 0b 3f 6d e2 be
       -2.3334649090268805e-05 -8.786555892444581e-06
000190 7d dc 79 ee e8 61 d2 be a5 63 8f 2d a9 e7 bc be
       -4.382720113597154e-06 -1.722867798861622e-06
0001a0 00 00 00 00 00 00 00 00 00 00 00 00 00 00 00 00
       0.0 0.0
0001b0 00 00 00 00 00 00 00 00 00 00 00 00 00 00 00 00
       0.0 0.0
0001c0 00 00 00 00 00 00 00 00 00 00 00 00 00 00 00 00
       0.0 0.0
0001d0 39 81 e4 ce da 51 97 be 0c 16 78 c4 74 34 94 be
       -3.4749127921127324e-07 -3.0107657209040753e-07
0001e0 6a a6 2e 38 98 7f c7 be b2 07 f5 46 48 18 c2 be
       -2.8012295287441218e-06 -2.157074554227369e-06
0001f0 a2 8f 65 d5 d3 6c f5 be 27 26 5d 0e bd 61 10 bf
       -2.0432574581077626e-05 -6.249157339968028e-05
000200 71 98 49 63 e3 32 1e bf 6e f7 6f 0e f3 59 2c bf
       -0.00011519921174282952 -0.00021630374905606424
000210 ee da ed 37 69 b2 38 bf cc 66 1e 06 1c 32 42 bf
       -0.0003768450623548432 -0.0005552899203735361
000220 04 a7 2a f3 bc 19 4a bf ae bd 5a ec 18 49 51 bf
       -0.000796525250128272 -0.0010550254241187096
000230 6d 88 48 85 92 d3 55 bf 24 f3 59 cb ac a3 58 bf
       -0.0013321810594182596 -0.0015038669056643495
000240 5a 47 56 50 3a 07 59 bf c2 10 ec fb 49 6c 56 bf
       -0.0015276021452774375 -0.0013685915470782882
000250 f2 ef 2a c2 3b 59 52 bf 88 32 ec bb ef 65 4a bf
       -0.0011199077204500055 -0.0008056088043715973
000260 16 b2 53 35 72 69 3e bf 83 ff c6 89 7f b1 2f bf
       -0.0004640487507703584 -0.00024180108893112279
000270 3d ec af f9 4d 54 1e bf b5 66 f1 16 e9 af 03 bf
       -0.00011569715427121957 -3.755025942870969e-05
000280 75 15 2a e5 39 5a eb be 67 de b0 11 5c 03 c8 be
       -1.3042662577742871e-05 -2.8625874058071587e-06
000290 00 00 00 00 00 00 00 00 00 00 00 00 00 00 00 00
       0.0 0.0
0002a0 00 00 00 00 00 00 00 00 00 00 00 00 00 00 00 00
       0.0 0.0
0002b0 7c 2b 23 b5 a4 b7 b2 be 50 14 71 9e 97 6e c2 be
       -1.1156414144060359e-06 -2.197265746713954e-06
0002c0 f5 85 a7 14 59 de d4 be 9f e9 01 1e 1f 65 fc be
       -4.975449267226221e-06 -2.7079587994618977e-05
0002d0 a7 00 c1 87 be 63 16 bf f0 6d 4d 85 8c 1f 2d bf
       -8.540964512438136e-05 -0.00022219267216426431
0002e0 a6 c6 08 ef fb 47 3e bf 6e 46 91 23 f1 2b 4d bf
       -0.0004620542595460221 -0.0008902480541427957
0002f0 92 04 8e 34 6e 27 58 bf b6 de 29 14 b4 ee 61 bf
       -0.0014742447112612617 -0.0021890179789883736
000300 b5 cf f2 83 58 33 68 bf 53 c5 11 62 b2 6e 6f bf
       -0.002954171067893053 -0.0038369640392878295
000310 14 f5 0c 49 16 33 73 bf 08 d7 70 14 2d 43 75 bf
       -0.004687392284549636 -0.0051910172397151635
000320 9e 5b 94 cc 2e f0 74 bf 9f 00 4b fd c3 d8 72 bf
       -0.005111868676315105 -0.004601255019849897
000330 be 65 b8 13 2a 53 6e bf 65 dd c2 f1 cf be 65 bf
       -0.003701765233711212 -0.002654462949148661
000340 21 7a 76 42 3c 42 5a bf 54 0c e2 79 82 9d 4c bf
       -0.0016027058098654417 -0.0008732688036307092
000350 a1 66 a4 bf b3 d6 3a bf 0e 54 a3 ff 88 40 25 bf
       -0.000409525760589705 -0.00016214058252353485
000360 74 e0 88 0c 38 b1 10 bf 04 1a b1 58 f4 38 e6 be
       -6.367592426037729e-05 -1.0596503463256204e-05
000370 16 7d 86 64 12 0a b3 be 00 00 00 00 00 00 00 00
       -1.1348332852113649e-06 0.0
000380 00 00 00 00 00 00 00 00 33 6e 95 e8 7f a8 8d be
       0.0 -2.2097082234383015e-07
000390 44 a4 18 ab a3 4b c1 be 96 fd 1f 8d 14 8d d7 be
       -2.0617802298961613e-06 -5.61501856743921e-06
0003a0 d2 a1 f8 0f ec 5f 01 bf 17 c2 d0 3d 90 f9 24 bf
       -3.3139602234225456e-05 -0.0001600254608162966
0003b0 07 bb 63 4f 72 c1 3a bf 4d 31 85 95 44 d3 4e bf
       -0.00040825882696442255 -0.0009407124407885631
0003c0 3b 7d c5 94 b9 44 5e bf 5b 6f 34 61 a2 ad 6a bf
       -0.0018474399867825636 -0.0032566234091414964
0003d0 66 94 7f 3c c3 18 75 bf 95 5c 15 d7 92 c8 7e bf
       -0.005150568620568929 -0.007515500635540869
0003e0 3b 42 d2 09 a2 67 85 bf b2 5a 41 78 25 e3 8b bf
       -0.010451570439074511 -0.0136168410610201
0003f0 89 8f 95 12 c6 85 90 bf 1f a3 22 54 98 bd 91 bf
       -0.016135306247988566 -0.017324810157023692
000400 6d 51 e4 5c 32 42 91 bf 86 2c 70 a1 b0 70 8e bf
       -0.016854082984609265 -0.01486337654752946
000410 92 10 68 ce 0d 5e 88 bf 6b fc d8 aa 60 fb 81 bf
       -0.011898143636251999 -0.008780245984892873
000420 4f 88 2a a9 dd 86 77 bf bf b3 16 6f cb dc 6b bf
       -0.005743852484245761 -0.00340118153754651
000430 e2 97 bc 5e 21 ad 5d bf 21 d6 c3 38 ee 46 4c bf
       -0.0018112970237296124 -0.0008629477684098421
000440 c3 34 1f 0a f4 1c 37 bf 6d 0b 9a b4 6e 50 16 bf
       -0.00035267789837407584 -8.512187664603899e-05
000450 85 89 89 f3 a5 33 eb be b3 40 1a f2 9e 5f b2 be
       -1.297080562884658e-05 -1.095147077388069e-06
000460 00 00 00 00 00 00 00 00 00 00 00 00 00 00 00 00
       0.0 0.0
000470 45 ce 6d 56 14 d5 d0 be 81 b6 59 25 a3 da fb be
       -4.013142961823187e-06 -2.6563693913342436e-05
000480 7b 36 f2 75 ce 7c 24 bf 42 8a 82 43 0b b3 42 bf
       -0.000156307413793067 -0.0005706601141535832
000490 25 21 55 b6 3e 08 57 bf cf ea a2 a6 89 f6 66 bf
       -0.001405774347704344 -0.0028031052107427633
0004a0 d1 47 64 84 61 75 74 bf bf 97 57 fd 57 80 80 bf
       -0.0049947556747315805 -0.008057296198739182
0004b0 1c 95 18 01 87 0b 88 bf 6a 61 3c a0 28 87 90 bf
       -0.011740736695240055 -0.016140589504261817
0004c0 fd fb 7a 4d c8 d1 95 bf ee 05 7f 8c 53 3b 9b bf
       -0.021308068970707684 -0.026593499613005216
0004d0 9d de 1f 07 28 5c 9f bf 96 40 76 1a bd a9 a0 bf
       -0.030624986109585185 -0.03254500339528581
0004e0 a1 a8 7f cb f7 5e a0 bf 2f 4e b7 06 13 92 9d bf
       -0.03197454794993005 -0.028877541813768722
0004f0 97 d1 4e c4 b3 72 98 bf 3d 00 f4 09 6d a7 92 bf
       -0.023875054222757788 -0.01821680424927784
000500 bf 47 ce 06 7e 2c 8a bf c4 6c 39 fd e3 bd 80 bf
       -0.012780174811073295 -0.008174687543194621
000510 e4 2f 98 7c 4e cf 73 bf 0b 3a b4 07 fc e2 65 bf
       -0.004836374844227696 -0.0026717112028855675
000520 a7 f0 53 ef 84 4b 54 bf 32 61 07 a2 2e b1 37 bf
       -0.0012387083236822612 -0.00036151302813671176
000530 8c 95 4f b8 1a 49 10 bf 7b 8d bc 72 3b ed c4 be
       -6.212449632377585e-05 -2.4946556517344747e-06
000540 00 00 00 00 00 00 00 00 ab 71 cf 90 cd fd 74 be
       0.0 -7.819912557723367e-08
000550 57 05 9f d6 19 15 ec be ac 13 52 48 7b 99 19 bf
       -1.3390743976662385e-05 -9.765448528937956e-05
000560 40 0d 11 02 ba c0 3d bf a0 b9 a3 a1 b2 83 55 bf
       -0.00045399228298866404 -0.0013131374785718478
000570 33 fa 22 0f 88 cc 67 bf 75 ae 33 34 53 5e 76 bf
       -0.002905145397647213 -0.005461049094474303
000580 f2 3c 6d c0 51 34 82 bf 23 e6 a7 bc 6d a6 8a bf
       -0.008888853726288979 -0.013012749976939969
000590 4b 9a 0f f6 da b8 91 bf d7 d2 f3 84 89 a4 95 bf
       -0.01730672957264749 -0.021135472049496364
0005a0 6a b5 8f 87 fa c4 98 bf a1 69 ed 36 b6 cd 9a bf
       -0.02418891384507075 -0.026175353147985473
0005b0 7c b7 31 dc 0b b0 9b bf 7e af 38 d1 f6 d2 9b bf
       -0.02703875094851281 -0.02717195178972486
0005c0 49 5e d4 76 a7 85 9b bf cb b7 79 b2 b8 f9 9a bf
       -0.026877037647038447 -0.02634323682143939
0005d0 5c 5e 63 2c 7f 43 99 bf db d3 aa e8 d0 e0 95 bf
       -0.024671542247999376 -0.021365417672047343
0005e0 bb 9a 48 1f 23 33 91 bf ca 61 b7 81 c0 76 88 bf
       -0.01679663542213448 -0.011945251425388732
0005f0 3c 9d 8d 80 87 6c 7f bf 26 4a aa b1 70 4a 72 bf
       -0.007671860986057152 -0.004465522967296331
000600 e2 f0 95 42 3a 21 62 bf 48 4c 41 5a ac e6 49 bf
       -0.002213109769114139 -0.000790437847636113
000610 27 a4 e8 08 64 c1 25 bf 3a 11 c0 32 6c ff ed be
       -0.00016598077896049052 -1.4304039346776075e-05
000620 01 c4 d3 e7 89 ef 9a be a5 79 ff 7d cc 4e e4 be
       -4.013731780958181e-07 -9.683517362132929e-06
000630 01 41 51 a2 49 6b 0e bf 56 08 8e 04 e6 1c 32 bf
       -5.801981414122089e-05 -0.00027638068836933116
000640 3c 95 cd 35 21 3d 50 bf 23 05 29 51 61 da 63 bf
       -0.0009911369627045438 -0.0024234677050861838
000650 5a 10 7c a7 f3 a2 73 bf ce 30 14 5e 8f ae 80 bf
       -0.004794074797022397 -0.008145446833190208
000660 68 d2 6e 7f 75 8d 88 bf 6a 80 45 b5 67 47 90 bf
       -0.011988561583941862 -0.015897388876851805
000670 2b e7 20 bc d1 e9 92 bf 9e e4 73 ed 92 6f 93 bf
       -0.018470074756101667 -0.01898030828758534
000680 81 11 79 bf 3a 5c 92 bf 6d b6 b9 63 93 34 91 bf
       -0.01792995256097774 -0.016802123033292583
000690 2c bb 8b 95 ef 83 90 bf 9a 8a 45 93 3d a6 90 bf
       -0.016128295424034864 -0.016259157289264616
0006a0 39 3b 9b f6 7f bd 91 bf d9 64 01 c1 77 0e 94 bf
       -0.01732444708505485 -0.01958644023429632
0006b0 26 99 e4 e2 ff e9 95 bf 62 d3 c8 ee bd ae 95 bf
       -0.021400449965903644 -0.021174400042770165
0006c0 72 45 8c 49 82 9e 92 bf 6b ce 91 45 bc 74 8c bf
       -0.01818278859997719 -0.013894530175299033
0006d0 99 21 49 f6 89 60 83 bf e1 2d 85 c1 2e 0b 77 bf
       -0.00946147711614813 -0.005625898971924199
0006e0 f1 13 24 56 c3 37 67 bf 89 88 81 65 7d 2e 52 bf
       -0.002834207073763022 -0.0011097168517371378
0006f0 fc 4a 8e 8f 1a f5 2d bf 7e 4d d2 a5 4b 68 ee be
       -0.000228557102471237 -1.449938025136518e-05
000700 5b 99 30 32 6e 5b c1 be bc 32 d4 01 c0 91 fc be
       -2.069133544962938e-06 -2.7245842024336704e-05
000710 bc 64 4b 3a 6c 0e 27 bf d7 97 64 3a 6a 9e 44 bf
       -0.00017590590609620714 -0.0006292360965616206
000720 ea a2 d3 43 21 c4 5a bf 10 94 a3 5a ca de 6b bf
       -0.0016336750844009825 -0.0034021332004266006
000730 b8 d4 e6 e8 ba d4 78 bf 7e 95 65 0f ed a3 83 bf
       -0.006062250248239191 -0.009590007812856124
000740 44 e4 a4 b9 68 56 8a bf 4f 7c 19 c1 84 5e 8f bf
       -0.012860124745758601 -0.015316998618059822
000750 39 10 70 17 ea 5f 8f bf 3c 57 8e 79 9b ac 8c bf
       -0.015319660988105098 -0.01400109734258203
000760 7b 65 eb ef 8a ec 8a bf 16 dd a2 4f d9 f9 8c bf
       -0.013146481940043078 -0.0141484239032779
000770 40 6b 22 02 f0 d1 90 bf 70 70 80 34 43 6f 92 bf
       -0.016425848131443432 -0.018002557830286425
000780 e7 fe f4 22 78 f7 92 bf 8b c0 aa 48 92 cb 93 bf
       -0.018522145398718683 -0.0193312508442323
000790 0f c2 44 88 72 c4 94 bf 05 61 1c 04 a6 bc 94 bf
       -0.02028063732831425 -0.020250886917978956
0007a0 e8 47 08 f3 44 63 92 bf d7 cd 27 59 7c f0 8c bf
       -0.017956807454602514 -0.014130565138635127
0007b0 ea 0b 81 3b 19 23 84 bf e7 82 59 a0 0d b8 77 bf
       -0.00983257019846025 -0.005790761211387197
0007c0 77 a7 99 57 fb 32 67 bf 29 9c 43 a7 81 68 52 bf
       -0.0028319272067180395 -0.0011235490938419446
0007d0 cc b2 6a ae 15 5f 2c bf e1 e9 a2 8e ec 20 eb be
       -0.00021645679153916295 -1.2935929096226494e-05
0007e0 1d 99 54 48 81 76 c9 be ee d0 3e 3b ef c4 06 bf
       -3.0354154342437406e-06 -4.342894626977062e-05
0007f0 6d 7e 43 e6 da 72 31 bf 84 53 e5 6e f3 d1 4a bf
       -0.0002662453100707788 -0.0008184851301772243
